checkpoint/ckpt.pt (torch_old, 81660 bytes, 6 tensors)

model.0.weight f4 [64, 3, 9, 9]
00000000: a7ac 903d cd0a 723d f489 763d 0952 9b3d
00000010: ee55 903d 6bbd 983d 9698 733d 938d 653d
00000020: c067 5f3d 91ef 933d 9b83 8f3d 7437 633d
00000030: 3f1f 943d 08b1 913d cfaf 903d 4d10 9a3d
00000040: 4c8c 943d f472 8e3d 5fb9 6a3d df31 653d
00000050: b5e1 773d 0b5e 7d3d 34d6 903d 93a1 973d
00000060: cc55 693d 6ba1 943d b1f7 993d eff3 993d
00000070: fd1f 653d 5fed 903d 00b8 9b3d fc0b 9c3d
00000080: ac61 643d 6bd8 933d ab2a 713d 983e 913d
00000090: 1d0d 6f3d 9295 993d a210 913d 7316 6c3d
000000a0: b1fc 953d 5f19 683d 330a 9e3d b37c 613d
000000b0: c53f 7a3d 08fb 953d bcd1 6d3d c7f6 683d
000000c0: f4a6 913d 320d 753d f735 623d eecc 753d
000000d0: 5e24 783d ddcf 683d a649 5f3d 7feb 663d
000000e0: cbf1 903d bd8e 913d 6758 6a3d 2538 6c3d
000000f0: 197f 923d 1e26 773d 676c 643d a1a8 983d
00000100: 453a 8f3d 70b1 973d c7fa 763d bfab 6b3d
00000110: 75ea 903d 3830 9c3d 9595 953d 3ef9 993d
00000120: 90b5 5c3d 923d 633d 42e9 933d f5e5 9a3d
00000130: 50b7 983d f86b 633d a234 923d 9892 8d3d
00000140: 0681 953d 2f4e 673d 7569 673d 9a6b 913d
00000150: 1cfe 603d aba1 7a3d 47a6 793d 11ab 8e3d
00000160: fd1a 8f3d 3bba 8d3d 7bb3 933d a43d 713d
00000170: ac21 8f3d 1afb 643d 5a8c 923d 8fbe 763d
00000180: e6de 623d 430d 753d 5929 993d 520a 953d
00000190: 9dc3 9b3d 3f17 773d c5c9 903d 9b8d 773d
000001a0: 4272 923d fbc2 9e3d 3213 9b3d f3d2 793d
000001b0: 97f5 753d 778a 9a3d 1432 9e3d 60b2 933d
000001c0: e1ef 923d 6fed 953d 51b9 653d 1893 693d
000001d0: fa07 703d 039c 5d3d b722 983d 12d6 6a3d
000001e0: 46e2 9f3d d987 733d 1a09 a03d e6af 993d
000001f0: 49e3 9d3d 484c 6a3d 76ad 663d 2e82 7a3d
00000200: 526f 633d e5d9 923d 2eb1 643d a9ce 953d
00000210: e3cb 623d 9398 913d f5e3 5e3d 875b 723d
00000220: 74db 953d 930a 653d 468d 913d 921f 923d
00000230: 5c33 6c3d 9ba7 9b3d f19d 5f3d 72ed 933d
00000240: 7d14 673d 64b1 8d3d 4a4c 683d f67b 5f3d
00000250: e931 743d 94e2 903d d19e 7a3d a4ec 9b3d
00000260: 8967 703d fcbc 923d 089c 943d 768f 643d
00000270: 53e7 763d 35a4 8e3d 0bb2 743d 2be4 943d
00000280: db26 673d 85ad 633d 6981 103d e725 173d
00000290: 10f6 433d 94f7 463d a4ff 1e3d 3a9c 413d
000002a0: d96a 1e3d 3095 3e3d b2d6 3e3d cc90 1a3d
000002b0: e659 433d dae8 403d c6bd 473d 1269 143d
000002c0: d88b 193d caec 4c3d ed20 4b3d 5fae 153d
000002d0: ce08 3e3d 707e 1e3d 8782 3e3d d6ee 1a3d
000002e0: a63b 243d 39be 1c3d af3e 173d a25c 3c3d
000002f0: 2fc8 1e3d 662f 113d 75de 203d 40de 163d
00000300: ea62 163d 2150 223d e447 453d 72be 4a3d
00000310: 6a4d 423d 872e 1e3d 9db6 143d 711f 3b3d
00000320: 8d57 4d3d 7d6c 1d3d e896 4d3d b8ed 423d
00000330: 5535 493d d98e 463d 4a9b 4b3d 0290 3a3d
00000340: 5e0e 1c3d efed 1a3d 10bb 1b3d b815 3e3d
00000350: 7e6e 433d 3519 4f3d 925c 4c3d 8804 233d
00000360: fdc8 1e3d d556 163d f00c 133d a747 213d
00000370: 66c4 423d cbda 403d eeb9 1d3d 65c2 413d
00000380: b12f 123d faef 403d a385 3e3d ef1f 483d
00000390: fe8e 3b3d d984 123d f6cc 4a3d 8b99 403d
000003a0: 9667 413d 1137 3e3d e216 193d 5b7f 1c3d
000003b0: ff9d 483d 8bf4 1f3d fe70 443d f907 403d
000003c0: fa9e 1f3d eb68 433d 42b1 403d 82c1 5dbe
000003d0: 9d2c 57be 2f8a 7ebe 6fd8 8bbe e9ca 67be
000003e0: 2593 8bbe ea3e 86be 25d7 59be 0486 87be
000003f0: f9a3 63be 2fc0 57be d145 8cbe 1ee4 5abe
0.07064181 0.05909233 0.060190156 0.07584006 0.0704764 0.074580036 0.05947169 0.05604322
0.054542303 0.07223428 0.070075236 0.055472806 0.07232522 0.07113844 0.07064783 0.075226404
0.07253322 0.06955519 0.05730569 0.055955764 0.060517985 0.061857264 0.07072106 0.07403865
0.056966588 0.072573505 0.075179465 0.0751723 0.05593871 0.07076525 0.076034546 0.07619473
0.05575721 0.07219013 0.058878582 0.07092017 0.058362115 0.074992314 0.070832506 0.057638597
0.07323588 0.05666482 0.07716789 0.055050563 0.06109597 0.07323271 0.058061346 0.05687597
0.07111922 0.059827037 0.055227246 0.06000989 0.060581557 0.05683886 0.054513596 0.05637693
0.07077368 0.07107303 0.057213213 0.05767073 0.07153148 0.060339086 0.055767443 0.074540384
0.06993536 0.074068904 0.060297754 0.057536837 0.07075969 0.076263845 0.07303921 0.07518242
0.05388409 0.05547864 0.07222225 0.07563392 0.07456839 0.05552289 0.07138945 0.06912726
0.073 0.056471046 0.056497056 0.071006015 0.054929838 0.061189335 0.06094959 0.06966222
0.069875695 0.06920286 0.072119676 0.058896676 0.06988844 0.05590353 0.07155676 0.060240325
0.055388354 0.0598271 0.074785896 0.07277359 0.0760567 0.060324904 0.070697345 0.06043778
0.07150699 0.07752033 0.075720206 0.060992192 0.060048666 0.07545941 0.077243954 0.07211757
0.071746595 0.073206775 0.056084935 0.057025045 0.058601357 0.054103862 0.07428496 0.05733306
0.0780683 0.059455726 0.07814236 0.07504253 0.07709367 0.057201654 0.05631777 0.061159305
0.055526085 0.07170466 0.055833034 0.07314808 0.055370223 0.07109179 0.054416616 0.05916932
0.07317248 0.055918287 0.07107024 0.07134928 0.057666168 0.076003276 0.054593984 0.072230235
0.056416024 0.069186 0.05671338 0.054561578 0.05961791 0.07074466 0.061186615 0.07613495
0.05869249 0.07164952 0.07256323 0.055800878 0.0602792 0.06964914 0.059740108 0.07270082
0.05643354 0.055585403 0.035279665 0.03690138 0.047842085 0.048575953 0.038818017 0.04726813
0.038676117 0.046528995 0.04659147 0.037735745 0.047693156 0.047097065 0.048764966 0.036233015
0.03748688 0.050030507 0.049591947 0.036543246 0.046395116 0.0386948 0.0465112 0.037825428
0.040095948 0.038267348 0.036925014 0.04598678 0.03876513 0.035445593 0.03927465 0.036833048
0.036715426 0.039627198 0.048164263 0.04949803 0.04743711 0.03861859 0.036306966 0.04568428
0.050132323 0.03843354 0.050192744 0.047589988 0.049123127 0.048476074 0.049708642 0.045547493
0.03809964 0.037824567 0.038020194 0.04640743 0.047712795 0.05056115 0.04989297 0.039799243
0.038765896 0.036703903 0.03590101 0.039374974 0.04755058 0.047083657 0.038507394 0.04730453
0.035690013 0.04710386 0.046514165 0.04885858 0.045790665 0.035771225 0.049511872 0.04702143
0.047217928 0.046439234 0.03737534 0.038207393 0.0489788 0.039051574 0.04795932 0.046882603
0.03896997 0.04770748 0.047044046 -0.21655849 -0.21013112 -0.248574 -0.27313563 -0.22635998
-0.272607 -0.26219875 -0.21273477 -0.26469433 -0.2223052 -0.21069406 -0.27397016 -0.21376082

model.0.bias f4 [64]
00000000: 0dfb 283e 5f9f a6be bc9b 989a 32da 12b3
00000010: d7ea 273c c52d 0000 4f6e e221 6e1e 0000
00000020: 3585 c0be 7b0f d2be 258b d0be a605 28be
00000030: 356c e0be 44bb 05be a455 023e f00b b4be
00000040: 758a cfbe cfcd 1d28 5a2a f8bd 2305 0080
00000050: 051f 0000 d4da 913e a8a4 b2ba fa3f 4429
00000060: 5f11 c7be 3800 0080 0558 a9be c318 0080
00000070: 0b49 879d e14c 36be 342c a93d 8340 bdbc
00000080: 9f10 e0bd e78e 813e b351 0532 2683 83be
00000090: 0d5c c03c 942e 0080 d738 0a3e 6d09 d7b9
000000a0: 6410 a8be 6221 0080 e71b fc98 e808 0000
000000b0: 6e22 0000 6726 81ae 45ed 56be 9400 71bc
000000c0: 8e42 203c 0a47 3cbd f00e 0080 f205 0000
000000d0: df09 0000 2384 1ab0 8a0a dc35 3c01 0080
000000e0: a025 0000 9b22 0000 9803 c6be 315d a4be
000000f0: d506 c3be 0f04 0080 383e 1fbd 76fb bebe
0.16502018 -0.32543465 -6.311733e-23 -3.419172e-08 0.010248861 1.6419e-41 1.5343554e-18 1.0916e-41
-0.3760163 -0.41027436 -0.4073116 -0.16408405 -0.43832555 -0.13059717 0.12727982 -0.35165358
-0.40535322 8.759878e-15 -0.12117453 -1.843e-42 1.1128e-41 0.28487265 -0.0013629394 4.3576233e-14
-0.3888044 -7.8e-44 -0.33074966 -8.883e-42 -3.5809727e-21 -0.17802764 0.08260384 -0.02310205
-0.1094067 0.25304338 7.760195e-09 -0.25685996 0.023481393 -1.6709e-41 0.13498245 -0.00041015018
-0.32825005 -1.1975e-41 -6.5168647e-24 3.195e-42 1.2351e-41 -5.8730625e-11 -0.20988949 -0.0147096105
0.009781493 -0.045966186 -5.359e-42 2.133e-42 3.541e-42 -5.621265e-10 1.6394345e-06 -4.43e-43
1.3497e-41 1.2414e-41 -0.38674617 -0.3210235 -0.3809115 -1.456e-42 -0.038877696 -0.37301224

model.2.weight f4 [32, 64, 1, 1]
00000000: 4d09 0080 7502 0080 b7e1 7cb5 e550 37b7
00000010: b006 0080 a75c 26b4 f72f 563b ebf4 7d37
00000020: f701 0000 a005 0080 9705 0080 d207 0000
00000030: ba0a 0080 c204 0080 ad05 0000 780a 0000
00000040: 9807 0080 e2b8 0cbc 1846 d6b9 ef12 ee3a
00000050: 76ff 8839 2702 0080 ac00 0080 32af 4b9a
00000060: 6f06 0080 d502 0000 5404 0080 61d6 acb7
00000070: a2e6 84b1 5705 0000 86da 9023 5207 0080
00000080: 4d30 5dbb fd00 0080 ed20 5bb5 3f04 0080
00000090: 4602 0000 1812 3f9e 4303 0080 9903 0080
000000a0: a306 0000 89a3 a09c 146a 5e29 2783 0e25
000000b0: d3e4 c4a9 c74f 3419 3605 0000 3d60 abaf
000000c0: 16c2 d230 205f 4c9a ac0f 04b5 5999 f4b2
000000d0: 9f8d 0ab7 f006 0080 8f0a 54b3 f80a 0000
000000e0: bf4a c839 75c6 40b8 5005 0000 2e07 0000
000000f0: 6a07 0080 3e06 0000 474c b5b6 8408 0000
00000100: ae69 c438 fbcc c43c af97 1635 a51b 4130
00000110: c43c 2d36 5a73 0e37 349f 891d ed94 33a2
00000120: 9b59 bc38 f1df f29c 08d8 9d33 fc6a 3133
00000130: c49f 04ba 0fd4 be27 4b49 8f19 ba08 a0b1
00000140: 7403 5db5 69cf ec26 3954 793a c865 eb99
00000150: 1565 5e39 bd90 992e 0a30 52b3 dcab 0331
00000160: d462 a62f ad5a 13a6 b638 8631 7913 51b1
00000170: b1f4 95a5 2e4e 1ead 72e5 0233 e709 c52a
00000180: a8a8 03b0 56fc 583b 2f8b 8b9c 218f e336
00000190: 1ef3 8f36 7d9a b9ae b8ab e0ba 60d7 e3b1
000001a0: aa99 782a b41e 572b b5e6 49ba 3bc2 2d39
000001b0: 4a76 2cad 2222 0c3b f109 42b3 90c4 fd39
000001c0: a755 2faf eff7 893a d37b 33b7 41ab 9dba
000001d0: 2c0b 0917 47b9 dfba 187c 4bbc a67f 8a31
000001e0: 2fa1 cc3b 3d35 d319 f40e c7a4 3d42 c73a
000001f0: 2859 fa90 8192 d232 0b3b 84b9 673c 61a8
00000200: 16a0 feb9 50c2 e9be 3233 ab36 33fc b3bd
00000210: 92cf e7bd 4811 179d e12a 0e30 c2c5 ff9b
00000220: 93fc f1be 6cb0 f7be 9008 cdbe c5bd 21be
00000230: ade5 dcbe fef1 1eb2 11db c0b5 169f 88be
00000240: 90c7 cabe 6f2e 7524 10c0 feb9 f0ce 87b8
00000250: b46c a0ba 8c57 bbbe a19b 9bbe ad44 2e1c
00000260: 45c5 c7be 3b04 0000 f76f 35bb a883 87b5
00000270: b01e 90b6 97ef 58bd b939 7abb 73ce 9fbb
00000280: c2e8 9cbc 8004 92bc 4fbd 2838 9070 d0bc
00000290: db07 95b8 ea5d a4ac 9b87 a8af 1b04 0080
000002a0: d94d a8bd 01db bbae 6a31 dabd f6ee 2735
000002b0: 8119 439b 9d00 a991 1169 08bf 0663 f3bd
000002c0: 9a31 a6ae 4b6c 55b3 7bab c138 2a15 8533
000002d0: 2845 67ae 1501 0000 9e3f ffac 8d0b 0080
000002e0: 713a 97bb 399f 1539 01e8 0abf 93b5 9cbe
000002f0: fb52 dfbe a90c 0000 2825 95bc e11d f8be
00000300: 900e f6bc 763c 04bf 885b 7ca7 205a 88be
00000310: ef09 86be f2b9 8c21 f326 a518 87ec d02f
00000320: 6dd4 eebe c1c0 05bf 74ef dabe 98b6 a5be
00000330: 5ede cebe 2fa3 f9b9 3028 31bb 73d2 d4be
00000340: 2eed f8be 9442 1738 8be1 13bd b2c2 82ba
00000350: 2228 3d1d eafb f0be 4eca c8be f294 c724
00000360: b714 eabe 8901 0080 0b5a 49bd 67d5 3430
00000370: bc54 b7ac bf7f 6fbe d4b9 8abd 4645 bcbd
00000380: afef 18be fb72 16be 9f59 dd17 908f 34be
00000390: 0509 69bc 5ae2 4e29 7e48 1db9 7906 0000
000003a0: cbba 59be 2037 4d29 2e58 9bbe 88d0 ddb9
000003b0: 8449 b0ab 0e07 f198 107e e2be 358d 9ebe
000003c0: 9023 30b5 9ab4 64ba 722c 14ae f6ea 6db1
000003d0: 1890 29b2 d801 0080 0205 c918 b205 0000
000003e0: d036 7db3 4a71 a73b 73ba f7be f0e4 cebe
000003f0: 893f c5be 7703 0080 dfd0 02be 3960 07bf
-3.336e-42 -8.81e-43 -9.4205774e-07 -1.0926485e-05 -2.399e-42 -1.5493661e-07 0.0032682398 1.51369995e-05
7.05e-43 -2.018e-42 -2.005e-42 2.805e-42 -3.848e-42 -1.707e-42 2.036e-42 3.755e-42
-2.724e-42 -0.008589001 -0.00040869485 0.0018163602 0.00026130275 -7.72e-43 -2.41e-43 -4.2120938e-23
-2.308e-42 1.016e-42 -1.553e-42 -2.0603826e-05 -3.8679255e-09 1.916e-42 1.570506e-17 -2.626e-42
-0.0033750713 -3.55e-43 -8.163177e-07 -1.523e-42 8.16e-43 -1.01151975e-20 -1.17e-42 -1.29e-42
2.381e-42 -1.0630185e-21 4.938591e-14 1.2360973e-16 -8.743843e-14 9.321893e-24 1.87e-42 -3.11731e-10
1.5334674e-09 -4.2263053e-23 -4.919664e-07 -2.8475073e-08 -8.258415e-06 -2.489e-42 -4.93697e-08 3.935e-42
0.00038202663 -4.5961195e-05 1.906e-42 2.576e-42 -2.66e-42 2.239e-42 -5.4031e-06 3.055e-42
9.365693e-05 0.024023524 5.6100083e-07 7.0252276e-10 2.581438e-06 8.490717e-06 3.642821e-21 -2.4337864e-18
8.981229e-05 -1.6072104e-21 7.350178e-08 4.1308326e-08 -0.00050592073 5.296551e-15 1.4815456e-23 -4.657605e-09
-8.233394e-07 1.6432008e-15 0.00095111463 -2.433954e-23 0.00021209226 6.983345e-11 -4.8938126e-08 1.91607e-09
3.0265446e-10 -5.112376e-16 3.9063606e-09 -3.0424572e-09 -2.601319e-16 -8.9986196e-12 3.0476663e-08 3.50011e-13
-4.78972e-10 0.0033109388 -9.234227e-22 6.7817896e-06 4.2900347e-06 -8.4402686e-11 -0.001714102 -6.631055e-09
2.2080138e-13 7.6425953e-13 -0.00077019195 0.00016570922 -9.8033335e-12 0.002138265 -4.5178187e-08 0.0004840237
-1.5946587e-10 0.001052616 -1.06980615e-05 -0.0012029187 4.428119e-25 -0.0017068767 -0.012419723 4.0308406e-09
0.0062448005 2.1838391e-23 -8.6327825e-17 0.0015202236 -9.874498e-29 2.451384e-08 -0.00025220992 -1.2503107e-14
-0.0004856593 -0.4565606 5.102157e-06 -0.087883376 -0.11318888 -1.9993618e-21 5.1720234e-10 -4.231401e-22
-0.4726301 -0.48376787 -0.40045595 -0.15795048 -0.4314398 -9.251833e-09 -1.4368871e-06 -0.26683873
-0.3960538 5.3165237e-17 -0.00048589753 -6.475847e-05 -0.0012239427 -0.3659023 -0.30392173 5.766053e-22
-0.39017692 1.518e-42 -0.0027685144 -1.0096601e-06 -4.295107e-06 -0.052962866 -0.0038181378 -0.0048769056
-0.019153956 -0.017824411 4.023063e-05 -0.025444299 -7.106337e-05 -4.671587e-12 -3.0655375e-10 -1.473e-42
-0.08217973 -8.5426784e-11 -0.10653956 6.256008e-07 -1.6138263e-22 -2.6663877e-28 -0.5328532 -0.118841216
-7.557617e-11 -4.969142e-08 9.234898e-05 6.197145e-08 -5.2584742e-11 3.88e-43 -7.254599e-12 -4.144e-42
-0.004615121 0.00014269062 -0.5426026 -0.3060728 -0.43617997 4.542e-42 -0.018206194 -0.48460296
-0.03003624 -0.51654756 -3.5021644e-15 -0.2663126 -0.26179454 9.535988e-19 4.269083e-24 3.8003042e-10
-0.46646443 -0.52247244 -0.42760813 -0.3236587 -0.40404028 -0.00047614562 -0.002703201 -0.4156681
-0.48618454 3.606321e-05 -0.036103766 -0.0009976237 2.503469e-21 -0.47067195 -0.39216846 8.6554816e-17
-0.4571893 -5.51e-43 -0.049158137 6.578688e-10 -5.2105802e-12 -0.23388575 -0.06773725 -0.091929
-0.14935182 -0.14692299 1.4304414e-24 -0.1763289 -0.014223342 4.5937517e-14 -0.00014999692 2.322e-42
-0.21262662 4.5566957e-14 -0.30340713 -0.00042307773 -1.2525957e-12 -6.2304163e-24 -0.44236803 -0.30967107
-6.561686e-07 -0.00087244215 -3.369078e-11 -3.46216e-09 -9.869858e-09 -6.61e-43 5.196234e-24 2.043e-42
-5.8956005e-08 0.0051099407 -0.48384437 -0.4040904 -0.38525036 -1.243e-42 -0.1277499 -0.528812

model.2.bias f4 [32]
00000000: d103 0080 bbc6 7497 c1bb 4abd 23ae 42be
00000010: c6b8 d2be 8ef9 593e 74a9 99be 370a 0080
00000020: 8d94 d5be fb26 0080 db1f 0000 976a 1fbe
00000030: d2b0 bcbe 7ce1 99be 0beb b93d befe c8be
00000040: 42a8 97be a409 0000 3634 ebbd 524e 1fbe
00000050: ca0d 0080 19a8 c1be d4ca 9e2a 0504 0080
00000060: 092b 391b 95e2 9e3d 2c1f 0080 0158 b13e
00000070: 5801 0000 ef07 b6be 58ce a5be 998a 773d
-1.369e-42 -7.9091485e-25 -0.049495462 -0.1901174 -0.41156596 0.21286604 -0.30012095 -3.664e-42
-0.41714898 -1.3984e-41 1.1428e-41 -0.15568005 -0.36853653 -0.30054843 0.09078034 -0.39256853
-0.29620558 3.458e-42 -0.11484568 -0.1555722 -4.947e-42 -0.3782356 2.8207178e-13 -1.442e-42
1.5316747e-22 0.07758061 -1.1182e-41 0.34637454 4.82e-43 -0.35552928 -0.3238399 0.06043491

model.4.weight f4 [3, 32, 5, 5]
00000000: 3306 0080 d005 0000 1e05 0000 9309 0000
00000010: d707 0080 6f09 0080 7200 0080 de09 0000
00000020: 8100 0080 ec05 0000 ab09 0000 9b02 0000
00000030: 0405 0080 7c03 0000 0c05 0000 4a05 0080
00000040: bf08 0080 b602 0080 9706 0000 d405 0080
00000050: 9a01 0080 e206 0000 d503 0080 8603 0000
00000060: 2108 0000 1e28 c527 d569 58a8 81d0 75b4
00000070: f5a9 67bb 7200 d4b4 2219 1338 2a41 60bb
00000080: 6dcf 703a 78ee e938 7d97 0db6 ecb2 54b7
00000090: 795f bcac 8756 87b6 b826 7136 9c88 8bb1
000000a0: c27d 9bb8 0915 3c3b edbe 16ad acdd ebb8
000000b0: 6954 d2a5 531f 39a7 e591 e0af 4378 0ba5
000000c0: 5e0b f1b1 ac91 a3b9 2fa6 91be 9470 93be
000000d0: 4cfe 96be 7192 cdbe 725d 99be 5ee6 9bbe
000000e0: 6b61 c7be 6a24 ccbe 9945 98be 21b9 cdbe
000000f0: c544 c7be a089 94be 7d73 98be 9dcd cabe
00000100: 587c 99be c6c8 cebe d5c4 cebe 0254 cfbe
00000110: 35ad 97be 9fdc 92be c126 9abe ebcb cdbe
00000120: fc90 c6be f40f cfbe 3f09 9bbe b178 09bf
00000130: 20a6 d0be ec4d ccbe ccd8 d1be b4af d0be
00000140: ba3f c5be d646 d3be d40c d1be 327c 09bf
00000150: 1ebf cebe 7daa cdbe af3d 09bf 3323 09bf
00000160: ab20 09bf 88eb 0abf 515c cebe 0e53 0bbf
00000170: eee2 d1be 4b5c d4be 7092 09bf 1ebc c6be
00000180: 01f4 d0be f309 d0be 558c cbbe 9c1d 0abf
00000190: ffa4 0ebf 378f dbbe bf86 11bf ade3 11bf
000001a0: 4c5a d8be 066e d2be b3d3 d5be 0015 ddbe
000001b0: 0bde d0be f7d7 d8be b87f 0fbf 6f80 d8be
000001c0: 5ba8 debe aa39 dbbe 5995 cfbe b0d7 d7be
000001d0: f65a d1be 07c6 cfbe d11b 10bf 8bae cfbe
000001e0: 2298 dabe 9eba ddbe 1747 0fbf 22c9 10bf
000001f0: 22b3 dfbe bf14 49bc c106 89bc f22b 4bbc
00000200: 5d85 49bc 4120 8abc dfe4 8dbc 996e 54bc
00000210: 902f 52bc 29d9 51bc 316d 8abc fcd6 4cbc
00000220: c0f3 4dbc 3515 55bc 83b2 56bc 2478 8dbc
00000230: e2c2 8fbc 2207 5abc a6a1 55bc d070 8ebc
00000240: ccbc 4abc a0ab 54bc c9d8 8fbc b7b2 4cbc
00000250: e856 54bc d790 48bc 1e50 dabe 0567 d0be
00000260: cfb2 dfbe 7e1c d8be 0620 d0be ea70 ccbe
00000270: f2d3 ecbe 2986 e4be a9e9 d0be 91a7 e1be
00000280: d0f6 d8be a95a cebe c132 cebe a17b eabe
00000290: 23a2 d2be 303f d1be 4e7f d2be 9c29 e5be
000002a0: 1e69 e1be 7aaa dabe 2daa ecbe b81d edbe
000002b0: ba69 edbe 0866 d7be 9840 d0be 59d1 0aa1
000002c0: aba5 6f9d ad5a 092f 3f96 fead 55b2 9f2e
000002d0: bc07 9a35 653e af21 f9ea 2433 d2e5 de9d
000002e0: 0110 93a4 bbd9 93a0 3f62 0e34 ec00 49b8
000002f0: c205 1218 2c44 db3a 2b89 8999 82d8 c831
00000300: 6340 e435 82fd 3a3b 4dce 2a39 1c11 1539
00000310: 9faf b4b2 02ac 8d31 001b 1e9d 8bd3 0e2e
00000320: b181 d7be 008a d5be 4a07 e0be 4a2f e2be
00000330: 6a47 d2be 3a5b d0be 33f3 cfbe 9bd2 13bf
00000340: f634 12bf 6a6f dcbe 8c62 12bf e45d 13bf
00000350: cdeb 13bf b2be dfbe 37bc e3be dc5e d1be
00000360: 8489 14bf 8f39 14bf 60fb d3be 9ad9 e1be
00000370: b998 ddbe 33f0 ddbe c6cb dcbe 5744 e5be
00000380: 160b 13bf cbc2 5fa1 dda3 98bb 7476 e7bb
00000390: 2edd 1e3a a575 8bba b119 0a1a b753 8621
000003a0: 4a0a 8118 4435 f7ba 7fe8 aa97 fedc a637
000003b0: 6dba ebb7 0820 c8b8 3c25 66bb 1fbc ccb5
000003c0: ec33 5eb9 26a5 0436 1d40 31a3 98c9 f5b6
000003d0: b989 9c21 38b8 a21c 0533 a5a1 d136 6b34
000003e0: a18a b020 8123 b034 da5b af33 6722 9b26
000003f0: 95bb 50ad ec9b 3aab 7669 d726 9515 649b
-2.224e-42 2.085e-42 1.836e-42 3.435e-42 -2.812e-42 -3.384e-42 -1.6e-43 3.54e-42
-1.81e-43 2.124e-42 3.468e-42 9.35e-43 -1.799e-42 1.25e-42 1.81e-42 -1.897e-42
-3.138e-42 -9.73e-43 2.364e-42 -2.091e-42 -5.75e-43 2.469e-42 -1.375e-42 1.264e-42
2.916e-42 5.472198e-15 -1.2013357e-14 -2.2893256e-07 -0.0035349105 -3.94884e-07 3.5070938e-05 -0.0034218528
0.0009186182 0.00011154724 -2.1098815e-06 -1.2677843e-05 -5.353881e-12 -4.0333866e-06 3.5934336e-06 -4.060963e-09
-7.4144e-05 0.0028699061 -8.568907e-12 -0.00011246963 -3.6486392e-16 -2.5690888e-15 -4.0849027e-10 -1.2097074e-16
-7.0153154e-09 -0.00031198317 -0.284471 -0.28796828 -0.29490888 -0.40150788 -0.29954106 -0.30449194
-0.38941512 -0.39871532 -0.297406 -0.40180305 -0.38919654 -0.2901125 -0.2977561 -0.39609995
-0.2997768 -0.40387553 -0.40384546 -0.4049378 -0.29624334 -0.28683946 -0.30107692 -0.4019464
-0.3878249 -0.4044186 -0.30280492 -0.53699785 -0.40751743 -0.399032 -0.40985715 -0.4075905
-0.38525182 -0.4126498 -0.408301 -0.5370513 -0.40380186 -0.40169135 -0.53609747 -0.53569335
-0.5356547 -0.5426564 -0.40304807 -0.54423606 -0.40993446 -0.41476664 -0.5373907 -0.38815397
-0.4081116 -0.4063259 -0.39755502 -0.5395143 -0.55720514 -0.42882702 -0.5684623 -0.5698803
-0.4225639 -0.41099566 -0.41763076 -0.43180084 -0.40794405 -0.42352268 -0.5605426 -0.42285487
-0.4348782 -0.42817432 -0.4054363 -0.42156744 -0.4088971 -0.4058077 -0.56292444 -0.40562853
-0.42694193 -0.4330644 -0.5596785 -0.56556904 -0.43691355 -0.012273013 -0.016726853 -0.012400614
-0.012299863 -0.016861083 -0.017321048 -0.012965822 -0.012828723 -0.012808123 -0.01689777 -0.012502428
-0.012570322 -0.013005544 -0.013104084 -0.017269202 -0.017548982 -0.013307365 -0.013039028 -0.017387778
-0.012374114 -0.012980372 -0.017559426 -0.012493781 -0.012960173 -0.012241564 -0.4263925 -0.40703598
-0.43691108 -0.42209238 -0.40649432 -0.39929897 -0.4625545 -0.44633606 -0.4080327 -0.44073156
-0.42375803 -0.40303543 -0.40273097 -0.45797446 -0.41139325 -0.4086852 -0.4111275 -0.44758308
-0.4402551 -0.42708188 -0.46223584 -0.46311736 -0.46369725 -0.4207003 -0.4067428 -4.703329e-19
-3.1717035e-21 1.2492292e-10 -2.894318e-11 7.262161e-11 1.1476145e-06 1.1874977e-18 3.8397932e-08 -5.900054e-21
-6.37782e-17 -2.504685e-19 1.3260522e-07 -4.7922993e-05 1.8872965e-24 0.0016728691 -1.422087e-23 5.84538e-09
1.7006063e-06 0.002853245 0.00016289316 0.00014216121 -2.1034621e-08 4.123195e-09 -2.0925085e-21 3.247495e-11
-0.42091134 -0.41706848 -0.4375556 -0.44176704 -0.4107011 -0.406946 -0.40615234 -0.57743233
-0.5711206 -0.43053752 -0.5718162 -0.5756514 -0.5778168 -0.43700176 -0.44479534 -0.40892684
-0.5802233 -0.5790033 -0.4140272 -0.4411133 -0.4328058 -0.4334732 -0.43124217 -0.44778702
-0.5743879 -7.5813145e-19 -0.004658206 -0.0070636813 0.000606018 -0.0010639919 2.8558484e-23 9.102352e-19
3.3356108e-24 -0.0018860479 -1.1044683e-24 1.989165e-05 -2.8100994e-05 -9.5427094e-05 -0.0035117408 -1.5253935e-06
-0.00021190912 1.9765662e-06 -9.608766e-18 -7.3250376e-06 1.0607426e-18 1.076788e-21 -1.119434e-18 2.1906023e-07
2.9907297e-19 3.2808387e-07 8.16578e-08 1.076461e-15 -1.1865083e-11 -6.629686e-13 1.4947207e-15 -1.8866691e-22

model.4.bias f4 [3]
00000000: b8fb cdbd 01be edbd 2cee e3bd
-0.10057777 -0.11608506 -0.11129412
